…
None, init_lora_weights=True, layers_to_transform=None, layers_pattern=None, rank_pattern={}, alpha_pattern={}, megatron_config=None, megatron_core='megatron.core', trainable_token_indices=None, loftq_config={}, eva_config=None, corda_config=None, use_dora=False, layer_replication=None, runtime_config=LoraRuntimeConfig(ephemeral_gpu_offload=False), lora_bias=False)
adding special tokens...
trainable params: 2,293,760 || all params: 3,215,043,584 || trainable%: 0.0713
PeftModelForCausalLM(
  (base_model): LoraModel(
    (model): LlamaForCausalLM(
      (model): LlamaModel(
        (embed_tokens): Embedding(128256, 3072)
        (layers): ModuleList(
          (0-27): 28 x LlamaDecoderLayer(
            (self_attn): LlamaSdpaAttention(
              (q_proj): lora.Linear(
                (base_layer): Linear(in_features=3072, out_features=3072, bias=False)
                (lora_dropout): ModuleDict(
                  (default): Dropout(p=0.1, inplace=False)
                )
                (lora_A): ModuleDict(
                  (default): Linear(in_features=3072, out_features=8, bias=False)
                )
                (lora_B): ModuleDict(
                  (default): Linear(in_features=8, out_features=3072, bias=False)
                )
                (lora_embedding_A): ParameterDict()
                (lora_embedding_B): ParameterDict()
                (lora_magnitude_vector): ModuleDict()
              )
              (k_proj): Linear(in_features=3072, out_features=1024, bias=False)
              (v_proj): lora.Linear(
                (base_layer): Linear(in_features=3072, out_features=1024, bias=False)
                (lora_dropout): ModuleDict(
                  (default): Dropout(p=0.1, inplace=False)
                )
                (lora_A): ModuleDict(
                  (default): Linear(in_features=3072, out_features=8, bias=False)
                )
                (lora_B): ModuleDict(
                  (default): Linear(in_features=8, out_features=1024, bias=False)
                )
                (lora_embedding_A): ParameterDict()
                (lora_embedding_B): ParameterDict()
                (lora_magnitude_vector): ModuleDict()
              )
              (o_proj): Linear(in_features=3072, out_features=3072, bias=False)
              (rotary_emb): LlamaRotaryEmbedding()
            )
            (mlp): LlamaMLP(
              (gate_proj): Linear(in_features=3072, out_features=8192, bias=False)
              (up_proj): Linear(in_features=3072, out_features=8192, bias=False)
              (down_proj): Linear(in_features=8192, out_features=3072, bias=False)
              (act_fn): SiLU()
            )
            (input_layernorm): LlamaRMSNorm((3072,), eps=1e-05)
            (post_attention_layernorm): LlamaRMSNorm((3072,), eps=1e-05)
          )
        )
        (norm): LlamaRMSNorm((3072,), eps=1e-05)
        (rotary_emb): LlamaRotaryEmbedding()
      )
      (lm_head): Linear(in_features=3072, out_features=128256, bias=False)
    )
  )
)
trainable params: 2,293,760 || all params: 3,215,043,584 || trainable%: 0.0713
PeftModelForCausalLM(
  (base_model): LoraModel(
    (model): LlamaForCausalLM(
      (model): LlamaModel(
        (embed_tokens): Embedding(128256, 3072)
        (layers): ModuleList(
          (0-27): 28 x LlamaDecoderLayer(
            (self_attn): LlamaSdpaAttention(
              (q_proj): lora.Linear(
                (base_layer): Linear(in_features=3072, out_features=3072, bias=False)
                (lora_dropout): ModuleDict(
                  (default): Dropout(p=0.1, inplace=False)
                )
                (lora_A): ModuleDict(
                  (default): Linear(in_features=3072, out_features=8, bias=False)
                )
                (lora_B): ModuleDict(
                  (default): Linear(in_features=8, out_features=3072, bias=False)
                )
                (lora_embedding_A): ParameterDict()
                (lora_embedding_B): ParameterDict()
                (lora_magnitude_vector): ModuleDict()
              )
              (k_proj): Linear(in_features=3072, out_features=1024, bias=False)
              (v_proj): lora.Linear(
                (base_layer): Linear(in_features=3072, out_features=1024, bias=False)
                (lora_dropout): ModuleDict(
                  (default): Dropout(p=0.1, inplace=False)
                )
                (lora_A): ModuleDict(
                  (default): Linear(in_features=3072, out_features=8, bias=False)
                )
                (lora_B): ModuleDict(
                  (default): Linear(in_features=8, out_features=1024, bias=False)
                )
                (lora_embedding_A): ParameterDict()
                (lora_embedding_B): ParameterDict()
                (lora_magnitude_vector): ModuleDict()
              )
              (o_proj): Linear(in_features=3072, out_features=3072, bias=False)
              (rotary_emb): LlamaRotaryEmbedding()
            )
            (mlp): LlamaMLP(
              (gate_proj): Linear(in_features=3072, out_features=8192, bias=False)
              (up_proj): Linear(in_features=3072, out_features=8192, bias=False)
              (down_proj): Linear(in_features=8192, out_features=3072, bias=False)
              (act_fn): SiLU()
            )
            (input_layernorm): LlamaRMSNorm((3072,), eps=1e-05)
            (post_attention_layernorm): LlamaRMSNorm((3072,), eps=1e-05)
          )
        )
        (norm): LlamaRMSNorm((3072,), eps=1e-05)
        (rotary_emb): LlamaRotaryEmbedding()
      )
      (lm_head): Linear(in_features=3072, out_features=128256, bias=False)
    )
  )
)
04/07/2025 18:11:07 - INFO - __main__ - block size: 2048
trainable params: 2,293,760 || all params: 3,215,043,584 || trainable%: 0.0713
PeftModelForCausalLM(
  (base_model): LoraModel(
    (model): LlamaForCausalLM(
      (model): LlamaModel(
        (embed_tokens): Embedding(128256, 3072)
        (layers): ModuleList(
          (0-27): 28 x LlamaDecoderLayer(
            (self_attn): LlamaSdpaAttention(
              (q_proj): lora.Linear(
                (base_layer): Linear(in_features=3072, out_features=3072, bias=False)
                (lora_dropout): ModuleDict(
                  (default): Dropout(p=0.1, inplace=False)
                )
                (lora_A): ModuleDict(
                  (default): Linear(in_features=3072, out_features=8, bias=False)
                )
                (lora_B): ModuleDict(
                  (default): Linear(in_features=8, out_features=3072, bias=False)
                )
                (lora_embedding_A): ParameterDict()
                (lora_embedding_B): ParameterDict()
                (lora_magnitude_vector): ModuleDict()
              )
              (k_proj): Linear(in_features=3072, out_features=1024, bias=False)
              (v_proj): lora.Linear(
                (base_layer): Linear(in_features=3072, out_features=1024, bias=False)
                (lora_dropout): ModuleDict(
                  (default): Dropout(p=0.1, inplace=False)
                )
                (lora_A): ModuleDict(
                  (default): Linear(in_features=3072, out_features=8, bias=False)
                )
                (lora_B): ModuleDict(
                  (default): Linear(in_features=8, out_features=1024, bias=False)
                )
                (lora_embedding_A): ParameterDict()
                (lora_embedding_B): ParameterDict()
                (lora_magnitude_vector): ModuleDict()
              )
              (o_proj): Linear(in_features=3072, out_features=3072, bias=False)
              (rotary_emb): LlamaRotaryEmbedding()
            )
            (mlp): LlamaMLP(
              (gate_proj): Linear(in_features=3072, out_features=8192, bias=False)
              (up_proj): Linear(in_features=3072, out_features=8192, bias=False)
              (down_proj): Linear(in_features=8192, out_features=3072, bias=False)
              (act_fn): SiLU()
            )
            (input_layernorm): LlamaRMSNorm((3072,), eps=1e-05)
            (post_attention_layernorm): LlamaRMSNorm((3072,), eps=1e-05)
          )
        )
        (norm): LlamaRMSNorm((3072,), eps=1e-05)
        (rotary_emb): LlamaRotaryEmbedding()
      )
      (lm_head): Linear(in_features=3072, out_features=128256, bias=False)
    )
  )
)
trainable params: 2,293,760 || all params: 3,215,043,584 || trainable%: 0.0713
PeftModelForCausalLM(
  (base_model): LoraModel(
    (model): LlamaForCausalLM(
      (model): LlamaModel(
        (embed_tokens): Embedding(128256, 3072)
        (layers): ModuleList(
          (0-27): 28 x LlamaDecoderLayer(
            (self_attn): LlamaSdpaAttention(
              (q_proj): lora.Linear(
                (base_layer): Linear(in_features=3072, out_features=3072, bias=False)
                (lora_dropout): ModuleDict(
                  (default): Dropout(p=0.1, inplace=False)
                )
                (lora_A): ModuleDict(
                  (default): Linear(in_features=3072, out_features=8, bias=False)
                )
                (lora_B): ModuleDict(
                  (default): Linear(in_features=8, out_features=3072, bias=False)
                )
                (lora_embedding_A): ParameterDict()
                (lora_embedding_B): ParameterDict()
                (lora_magnitude_vector): ModuleDict()
              )
              (k_proj): Linear(in_features=3072, out_features=1024, bias=False)
              (v_proj): lora.Linear(
                (base_layer): Linear(in_features=3072, out_features=1024, bias=False)
                (lora_dropout): ModuleDict(
                  (default): Dropout(p=0.1, inplace=False)
                )
                (lora_A): ModuleDict(
                  (default): Linear(in_features=3072, out_features=8, bias=False)
                )
                (lora_B): ModuleDict(
                  (default): Linear(in_features=8, out_features=1024, bias=False)
                )
                (lora_embedding_A): ParameterDict()
                (lora_embedding_B): ParameterDict()
                (lora_magnitude_vector): ModuleDict()
              )
              (o_proj): Linear(in_features=3072, out_features=3072, bias=False)
              (rotary_emb): LlamaRotaryEmbedding()
            )
            (mlp): LlamaMLP(
              (gate_proj): Linear(in_features=3072, out_features=8192, bias=False)
              (up_proj): Linear(in_features=3072, out_features=8192, bias=False)
              (down_proj): Linear(in_features=8192, out_features=3072, bias=False)
              (act_fn): SiLU()
            )
            (input_layernorm): LlamaRMSNorm((3072,), eps=1e-05)
            (post_attention_layernorm): LlamaRMSNorm((3072,), eps=1e-05)
          )
        )
        (norm): LlamaRMSNorm((3072,), eps=1e-05)
        (rotary_emb): LlamaRotaryEmbedding()
      )
      (lm_head): Linear(in_features=3072, out_features=128256, bias=False)
    )
  )
)
Map:   0%|          | 0/392702 [00:00<?, ? examples/s]Caching processed dataset at /home/ka/ka_stud/ka_usxcp/.cache/huggingface/datasets/json/default-851ce74e92ca2b7e/0.0.0/f4e89e8750d5d5ffbef2c078bf0ddfedef29dc2faff52a6255cf513c05eb1092/cache-9faf32f636901887.arrow
04/07/2025 18:11:07 - INFO - datasets.arrow_dataset - Caching processed dataset at /home/ka/ka_stud/ka_usxcp/.cache/huggingface/datasets/json/default-851ce74e92ca2b7e/0.0.0/f4e89e8750d5d5ffbef2c078bf0ddfedef29dc2faff52a6255cf513c05eb1092/cache-9faf32f636901887.arrow
…
